basic_nn/cnn.pth (torch, 263169 bytes, 12 tensors)

cnv1.weight f4 [6, 3, 5, 5]
000000 32 85 9c bd 82 8c 0f ba 4e 2c 95 3d 7a 0b f4 bc
       -0.076425925 -0.00054759544 0.07283841 -0.029790629
000010 dc 07 ba 3d c0 53 9a bd a8 6c 23 be 4e 43 c0 bc
       0.0908353 -0.07535505 -0.15959418 -0.023469593
000020 6a a6 e3 3d 09 26 b4 3d 25 ea 53 be 9c 47 5b be
       0.11115725 0.08796317 -0.20694788 -0.21414036
000030 87 58 48 be aa 8f 07 be 57 cc c2 3c 44 68 c0 bd
       -0.1956502 -0.13238397 0.023779077 -0.09394887
000040 2d 42 13 be db 48 47 be 9c dd d0 bd af 99 06 be
       -0.14380713 -0.19461386 -0.10198519 -0.13144563
000050 f3 40 2f bc 94 d1 c1 bd 0b 20 13 be f5 1f 46 be
       -0.010696637 -0.09463802 -0.14367692 -0.19348128
000060 c6 2c 75 bc 54 cd c3 bc bc 75 1a 3e 06 c5 e2 3d
       -0.014964288 -0.023901619 0.15083975 0.110727355
000070 2c 73 45 3e 89 a0 9f 3d 89 2a 40 3c 64 ed 88 3c
       0.19282216 0.077942915 0.011728891 0.01671476
000080 ca 6e 30 bd 00 d0 64 38 a0 1b 32 3d 4d 81 1a be
       -0.043074407 5.455315e-05 0.043483377 -0.15088387
000090 91 f6 37 be b6 7f 0b be 5e 9f 01 bd fb 0d af bd
       -0.17965151 -0.13622937 -0.031646125 -0.085475884
0000a0 bb 72 7f 3d cd ea c8 3d 0b 18 ad bd f0 bd 81 3d
       0.062365275 0.0981041 -0.084518515 0.06335056
0000b0 78 bc 1b bd 95 a7 87 3d 14 7c c9 3d ca 5c b1 3c
       -0.038021535 0.066237606 0.09838119 0.02165069
0000c0 f4 a3 e5 bc 45 6b 50 bd eb c2 9f 3d 81 47 a8 3d
       -0.02803228 -0.05088355 0.078008495 0.08216763
0000d0 c8 99 78 3e c5 44 2c 3e fb 75 39 3e 4f 85 d8 bd
       0.24277413 0.16823108 0.18111412 -0.105723016
0000e0 3a 98 88 3d ba 22 db 3d 25 a6 d7 3d 6a 39 f8 3c
       0.0666966 0.10699983 0.105297364 0.030300815
0000f0 fe 34 dd bc 4a 1a c1 bd 1a 31 e0 bb a7 02 c7 bd
       -0.027002808 -0.09428842 -0.006841791 -0.09717303
000100 3e fb b4 3c c1 9f 03 3d 81 9c ad bd 5e 9a 50 3d
       0.022092458 0.032134775 -0.084771164 0.050928466
000110 8b 25 63 3d e0 25 04 bd b4 98 a1 3d 6e 15 de 3d
       0.055455726 -0.032262683 0.07890454 0.10843931
000120 0a de bc 3d 76 7b 88 bd 75 d0 b6 bd ec aa ae bd
       0.09222038 -0.06664173 -0.08926479 -0.085286945
000130 f0 8a 03 be dd 5c 83 bc b9 ea ee 3d c4 41 f2 3e
       -0.12845969 -0.016035492 0.116658635 0.473158
000140 bf 49 8d 3c bb c5 f3 3e 3b 59 cb bd bc e1 59 bf
       0.017247079 0.47611794 -0.09929129 -0.8511007
000150 ab 93 b2 3e 96 b2 81 3e de 61 65 3f ec ed b8 bc
       0.34878287 0.25331563 0.8960246 -0.022574387
000160 bd b4 a9 bf e5 c9 53 3e 58 5d b6 3e 2e 93 3f 3f
       -1.3258282 0.20682485 0.3561809 0.74833953
000170 03 45 26 be 6a 37 6c bf 05 4d 30 bc 41 c7 0b 3e
       -0.16237263 -0.92272055 -0.01076055 0.13650228
000180 4a 0e 23 3e 6c 0e ed bd 71 ef b1 be 6e c1 62 3e
       0.1592342 -0.115750164 -0.34752992 0.221441
000190 fb 21 ec bd ca 19 95 3d 3c cb a9 be a1 dd 82 be
       -0.11529919 0.072803095 -0.33162868 -0.25559714
0001a0 62 0f c4 3d 73 c3 96 3e 76 a0 34 3f 10 69 7e be
       0.095732465 0.2944599 0.70557344 -0.24844766
0001b0 ac 2a 86 bf 61 3a 2d 3e 2e cc cc 3e 43 45 6e 3f
       -1.0481772 0.16916801 0.39999527 0.93074435
0001c0 30 c0 26 be 26 37 c1 bf f8 fa 1c 3e f4 cc f9 3e
       -0.16284251 -1.5094955 0.15330112 0.4878918
0001d0 f3 de 30 3f 1b 84 6e be f4 d2 95 bf 35 07 3a 3e
       0.69090194 -0.23292582 -1.1705003 0.18166812
0001e0 f6 e6 83 3d 65 fa 94 3e 33 a2 e4 bd 39 2e ca be
       0.06440537 0.29097286 -0.111637495 -0.3948839
0001f0 06 24 60 3e f6 55 f0 bd 36 57 91 3c 76 66 7f be
       0.21888742 -0.11735146 0.01774178 -0.2494143
000200 83 b1 6b be 3c cc 07 3e 6d cc 7c 3e 6a 0a fc 3e
       -0.23016934 0.13261503 0.24687357 0.49226695
000210 62 73 85 be 09 7d 6d bf 7b 06 a0 3e 73 f4 9f 3e
       -0.26064593 -0.92768914 0.31254944 0.31241187
000220 fe fa 6a 3f 4b 9c 16 be 2d b8 ad bf 3d 93 8e 3d
       0.91789234 -0.14708059 -1.3571831 0.06961677
000230 b7 51 9c 3e bc 84 46 3f b8 cc fc bc ab 26 79 bf
       0.30531093 0.77546287 -0.030859336 -0.9732463
000240 cc b7 67 3e 6d 0a 5c 3b ee 2a 49 3e 2e 7e a6 bd
       0.22628707 0.003357555 0.19645283 -0.081295356
000250 5f b4 18 be 3c 34 67 3e 41 7e 06 be f5 76 2f be
       -0.14912556 0.2257852 -0.131341 -0.17135222
000260 4a e7 38 be 1f 2c 9e be 5a 48 61 be ad ed a1 be
       -0.1805698 -0.30893037 -0.22000256 -0.31626645
000270 58 82 69 be 33 0c d3 be 47 e0 1b be 75 c7 a6 be
       -0.22803628 -0.41220245 -0.15222274 -0.3257405
000280 af 44 89 be 85 4d ca be b3 0e 9e be fe 5f b4 be
       -0.26810214 -0.39512268 -0.3087059 -0.35229486
000290 87 8c 4a be fc 48 d4 be 29 63 b9 be 0a 64 9c be
       -0.1978017 -0.41461933 -0.36208466 -0.30545074
0002a0 1a 44 a5 be bd 03 71 be 43 dd 84 be 9c ad 8d be
       -0.3227852 -0.23536582 -0.2595006 -0.27671516
0002b0 73 54 25 be a6 34 81 be d3 d6 17 be 77 6d 77 3d
       -0.16145496 -0.2523548 -0.14828043 0.06040713
0002c0 34 13 af 3d f4 eb 55 bd 88 a1 a7 bd bc 35 3a be
       0.085485846 -0.052226976 -0.081851065 -0.1818456
0002d0 10 4d 2d bb 40 cd 11 3e 0f ac 25 3e 68 c9 d8 3d
       -0.0026443638 0.14238453 0.16178916 0.1058529
0002e0 0d b0 15 3e 10 e7 88 3c f0 fa b0 bc a6 b1 1d 3e
       0.1461794 0.016711742 -0.021604031 0.15399799
0002f0 02 2c 40 bc d2 3d 47 bd 18 2b 80 bd 9a c1 e8 3c
       -0.011729242 -0.04864294 -0.062582195 0.028412629
000300 e6 6f 2d bd 43 30 ba 3c 3d 1b fe bd ed e7 47 be
       -0.042343043 0.022728091 -0.12407539 -0.19522066
000310 0b df 1a be 4c ab 87 bd d9 5e 30 bd b9 b2 01 be
       -0.15124147 -0.06624469 -0.043059204 -0.12665834
000320 27 3a c0 3e 44 33 1f 3f a8 17 26 3f e3 07 cc 3e
       0.37544367 0.621876 0.64879847 0.39849767
000330 c3 d9 bd 3c 24 5b f9 3e a1 ca 17 3f 2c 23 21 3f
       0.023175126 0.48702347 0.5929356 0.62944293
000340 94 43 00 3f f3 8d ce 3e b1 a5 a5 3e d0 4b 15 3f
       0.50103116 0.40342674 0.32352975 0.58318806
000350 70 3f f6 3e ff 24 fc 3e af 9e 85 3e 10 eb 89 3e
       0.48095274 0.49246976 0.26097628 0.2693715
000360 72 f7 c5 3e ef 21 ae 3e 47 48 9c 3e a1 77 33 3e
       0.38665348 0.34010264 0.30523893 0.17526104
000370 3a cf 79 3e 22 b0 ca 3e a9 15 80 3e 9b bf 50 3e
       0.24395457 0.39587504 0.25016525 0.20385592
000380 3d 45 83 3d da 30 d3 3e e9 6d fc 3e f4 1b 05 3f
       0.064096905 0.41248208 0.49302605 0.5199578
000390 93 c2 ec 3e 15 9d 8e 3e 0d ce 4d 3f 93 14 92 3f
       0.46242198 0.2785422 0.80392534 1.1412529
0003a0 2f 19 93 3f ab 91 73 3f ee d5 28 3f 0a f1 e8 3e
       1.149206 0.95144147 0.6595143 0.45496398
0003b0 5e 3c a2 3e 0a 3c 61 3e 5f 70 89 3d e7 86 ee 3d
       0.31686682 0.2199556 0.06710886 0.11646824
0003c0 8e 70 69 be 67 b2 18 bf ac 3e 57 bf a7 20 53 bf
       -0.22796842 -0.5964722 -0.84080005 -0.824717
0003d0 70 18 dd be 56 b0 c7 be 18 5f 0d bf bf 77 0a bf
       -0.43182707 -0.3900172 -0.55223227 -0.5408897
0003e0 62 4c 01 bf b9 65 d6 be 7e 1b 51 be e3 1a 2e be
       -0.50507176 -0.41874483 -0.20420644 -0.17002444
0003f0 91 7a 74 be 0a f3 c3 be d0 55 b5 be 82 03 c5 3e
       -0.2387488 -0.38271362 -0.35417032 0.3847924

cnv1.bias f4 [6]
000000 07 70 14 3e d5 50 19 3e 4f 9f 06 bf ba 04 49 bd
       0.1449586 0.14972241 -0.52586836 -0.049076773
000010 ae 8c 82 3f 69 b5 44 3d
       1.0199182 0.04802457

cnv2.weight f4 [16, 6, 5, 5]
000000 67 4a 7d bd 86 1e 3b bc bd 00 5f bc 10 fc 37 3c
       -0.061838534 -0.011420852 -0.013611016 0.01122953
000010 66 3c a8 bd fe 8e e8 bd d3 b0 82 bd 8b f7 8c bc
       -0.08214645 -0.113553986 -0.06381383 -0.017207881
000020 47 28 c4 bd 63 e9 b7 bb 9b f0 ec bd b6 f9 45 bd
       -0.09577995 -0.0056125387 -0.11569329 -0.048333846
000030 a1 f4 54 bb bb 65 c3 bd e6 da f8 3c d9 c8 53 3d
       -0.0032494443 -0.09540888 0.030377816 0.051705215
000040 13 ee 34 bd 73 66 3c 3d c8 cf f7 bd 17 3e 6d bd
       -0.044172358 0.04599614 -0.12100178 -0.05792054
000050 61 ad 03 3c 5e ed b9 bd 1c 8f c3 bd b7 a6 c0 bd
       0.008036942 -0.09078477 -0.0954878 -0.09406798
000060 6e ba 2b bc 37 a8 f3 3d 57 50 09 3e 48 c5 1b be
       -0.01048146 0.11897319 0.13409553 -0.15211976
000070 0e ff 2d bd 2c f9 c9 bb 74 00 68 3e 48 bb 9f be
       -0.042479567 -0.006163737 0.22656423 -0.31197572
000080 00 85 d8 3c 91 ac 2d bd 9e c1 cc bd 02 24 a4 3e
       0.026430607 -0.0424009 -0.09997867 0.32058722
000090 21 46 c8 be b1 b7 a8 3d 67 5f b1 be b7 73 16 3e
       -0.39116004 0.08238161 -0.346431 0.14692579
0000a0 f9 b6 3a bd 48 85 c8 bc 49 34 1c be 7c 0d 9b be
       -0.045584653 -0.024477616 -0.1525432 -0.30283725
0000b0 9c 15 6d 3e 96 c0 3b be aa 11 23 bd c4 fe dc bd
       0.23152775 -0.18335184 -0.039811768 -0.1079078
0000c0 8e cd 66 3d 40 99 42 bd 63 42 94 bd fa 55 cb bd
       0.056348376 -0.04750943 -0.07239225 -0.09928508
0000d0 62 aa 2f be 4c 6c d1 bb fb 93 13 be cf 7c 3a be
       -0.1715484 -0.006391084 -0.14411919 -0.18211673
0000e0 47 2d 61 be 80 73 bf bd 3a e3 9e bd 1d c3 b1 ba
       -0.21989928 -0.09348202 -0.07758184 -0.0013562177
0000f0 92 3b 85 be 56 17 0f 3d f9 82 ab 3d bf 0d fb bd
       -0.2602201 0.034934364 0.083745904 -0.12258481
000100 b2 ad c9 bc 2a ee 5b be 02 4e 9e 3c 2c 3a 0c 3e
       -0.024618957 -0.21477571 0.019324306 0.13694066
000110 90 d9 6f bd ac 79 bc bd 21 66 cd be 7a 39 9c bd
       -0.058557093 -0.092028946 -0.4011698 -0.0762815
000120 b3 b1 d0 bd 36 5d 58 be d9 31 7f be cb fb 06 3e
       -0.101901434 -0.21129307 -0.24921359 0.13181989
000130 02 a7 86 3d 99 1c 91 3d 02 79 bd 3d 8b 34 20 3e
       0.06574823 0.07085533 0.09251596 0.15645044
000140 2d 7e e5 bd 4b bf 33 3d b4 48 51 3e ac 43 de bd
       -0.11205707 0.043883603 0.2043789 -0.10852751
000150 0d 2e 03 3d cb 0c b6 be 9d e3 75 be 95 e9 4a bd
       0.03202634 -0.35556635 -0.24012609 -0.049539167
000160 2f 16 0b be 8b 3b 0d 3e 25 8e a1 be 59 c8 50 be
       -0.13582681 0.13792245 -0.3155376 -0.20388927
000170 06 a5 19 3e 76 74 d1 3d f5 fb ae 3e ec 21 d1 be
       0.15004358 0.10227291 0.34176603 -0.40846193
000180 f4 2f 69 be 28 51 f0 bd 63 3f ed bc c3 20 90 3d
       -0.22772199 -0.11734229 -0.02896089 0.07037499
000190 aa 00 a4 bc f6 71 d1 3c eb c8 a3 bc 8e 0d a7 bd
       -0.020019848 0.025567036 -0.019993266 -0.08156882
0001a0 dd 7f 8a bd cf ab b2 3c d4 36 ae 3c c9 00 9c bd
       -0.06762669 0.02181044 0.021266378 -0.07617337
0001b0 7d c5 4a 3e 56 91 48 3c 26 f5 ce bc 43 ad 07 be
       0.19801898 0.012241682 -0.02526338 -0.13249688
0001c0 7c 45 fa 3d fd ac 12 bd e7 03 f9 3d df 18 40 be
       0.12220284 -0.035809506 0.121589474 -0.18759488
0001d0 9e 75 29 be ae c8 60 3c ab 81 3a 3d 5e 30 54 3e
       -0.16548774 0.013719721 0.045533817 0.20721576
0001e0 39 dd 35 be de 41 56 be 1a b4 45 3c 34 88 4b 3e
       -0.17760171 -0.20923564 0.012066865 0.19876176
0001f0 5f ce 35 3e 07 02 7a 3e 9a e3 34 be ce 59 f2 3c
       0.17754506 0.24414836 -0.17664948 0.029583838
000200 31 4e ad 3c 72 d3 89 bc 9c 2e 49 3e 10 58 e1 3c
       0.021155449 -0.016824458 0.19646686 0.027507812
000210 56 70 00 3e 4b b5 54 3d 23 e9 82 bd a7 82 c4 3d
       0.12542853 0.051930707 -0.063921236 0.095952325
000220 2a 11 84 3d 59 b5 32 3e 60 d8 db 3b 72 78 bc bd
       0.06448586 0.17451991 0.0067091435 -0.092026606
000230 dc 74 19 bc 63 9a ca bc ba 07 2b bd 2d 6f 17 3e
       -0.00936624 -0.02473182 -0.041755415 0.14788504
000240 97 61 e7 bd 8d aa 1f 3e 55 71 ee 3d 3b 06 f3 3d
       -0.11297911 0.15592404 0.1164271 0.11866423
000250 60 ad b1 3d 5e a4 c3 bd 5a ff 53 bd 0e 4d 1d 3c
       0.08675647 -0.09552835 -0.051757194 0.009600891
000260 2c d0 83 bd 10 c9 74 bd 77 17 8e 3d 81 a5 d9 bd
       -0.0643619 -0.05976206 0.06938069 -0.106272705
000270 6c 7e 9e bd 75 5b 7b 3c 94 9c 79 3d 58 65 d4 bc
       -0.07738957 0.015341629 0.06094034 -0.02592723
000280 50 e7 0c 3d f2 2a 7f 3d fa fc 50 bc ee 49 06 bc
       0.034400284 0.062296815 -0.012755627 -0.008196337
000290 f5 6f b4 bc 50 fc 51 bd 9d 8c 58 3d 35 d1 07 bd
       -0.022026042 -0.051266015 0.052868474 -0.0331585
0002a0 5c e3 a3 bc 71 0e a1 bd 18 5e e9 3b 91 6c 79 3d
       -0.020005874 -0.078640826 0.0071218126 0.060894553
0002b0 e0 f2 a0 3d 62 f8 df ba 76 a4 9a bc 23 86 01 3f
       0.07858825 -0.0017087574 -0.01887725 0.505953
0002c0 b9 8f 8f 3e ec 32 17 bd 2c 0b 00 3e 0a cc 8b 3e
       0.2803934 -0.036913797 0.12504262 0.27304107
0002d0 5c 33 b3 3d 85 7d 0a 3e 9d d1 c0 3d 30 49 94 bd
       0.087500304 0.13524444 0.094149806 -0.07240522
0002e0 6b 17 03 be 70 9f f1 be 3a bc 80 be 24 83 0f 3e
       -0.12801902 -0.47191954 -0.25143605 0.1401487
0002f0 ee fb 1d bb 46 da 18 be 6f 32 9c bd 7b f8 53 be
       -0.002410646 -0.14927015 -0.07626807 -0.20700257
000300 1c 34 ae be a3 12 a3 be 70 0b 81 3d 29 63 ca bb
       -0.3402413 -0.31850156 0.0630101 -0.0061763716
000310 9c bf c2 be 84 ca 06 bf 98 34 84 be d0 9f 68 be
       -0.3803681 -0.52652764 -0.25821376 -0.22717214
000320 9b 74 81 be bc b7 ce be c0 62 ec be f0 7b e6 be
       -0.25284275 -0.40374553 -0.4616909 -0.45016432
000330 d8 ad 92 be fe 6b 4f be 6e a9 a9 be a8 97 cc bd
       -0.28648257 -0.2025604 -0.33137077 -0.09989864
000340 37 ea 27 3e 93 46 13 3e 06 40 60 3d d6 60 8e 3e
       0.1639794 0.1438239 0.054748558 0.27808255
000350 7f 7b 5e 3e 83 14 20 3e 19 90 82 3e 1c 7d 6a 3e
       0.21726798 0.15632825 0.25500563 0.22899288
000360 b2 d5 a8 3e 27 6c c0 3e 8c 29 1f 3e 9d aa f9 3d
       0.32975537 0.37582514 0.15543193 0.12190745
000370 a5 6c 50 3e d0 e6 3b 3d b7 a7 0b 3d d2 a0 90 3d
       0.20353945 0.045874417 0.034095492 0.07061924
000380 c3 23 3a 3e 49 c7 59 bc 6a df 82 3e 5f 68 50 3e
       0.18177705 -0.013292142 0.25561076 0.20352314
000390 79 e2 2a 3d 80 71 a6 bd 22 d7 a9 bd 5f 92 96 bd
       0.041719887 -0.08127117 -0.082929865 -0.07352137
0003a0 9f 06 3d 3e 62 45 b0 3e b7 57 3c 3e 6e 8c 9a be
       0.18459557 0.34427935 0.18392836 -0.30185264
0003b0 ea b3 b0 3d 43 b0 b0 3e a0 1e 2e 3e fe b5 9b 3c
       0.08628066 0.34509477 0.1700387 0.01900768
0003c0 ca 93 cd bd 48 88 9c 3e f5 84 78 3d ea 1e dd 3c
       -0.10037954 0.30572724 0.060673673 0.02699228
0003d0 a0 3d 32 3e 28 86 4f be f0 d6 5a bd 3d 80 38 bc
       0.1740632 -0.2026602 -0.053427637 -0.011261043
0003e0 64 9f b5 3b ad 5f b2 bc 52 66 2f 3e cf d6 8f 3e
       0.0055426825 -0.021774137 0.17128876 0.28093573
0003f0 41 79 29 3e 5b 1a 3b 3e 72 92 1f 3e ad 5c 0e 3e
       0.16550161 0.18271773 0.15583208 0.1390254

cnv2.bias f4 [16]
000000 ee 35 ac 3f 4c 35 0d be ac 09 04 40 d9 74 7d 3e
       1.3453958 -0.13789862 2.0630903 0.24751605
000010 6d df b3 be c6 f3 a6 be 5a 57 44 bf 2a e1 23 3f
       -0.35131398 -0.3260786 -0.7669579 0.6401545
000020 a3 10 2f bf c6 d3 4f 3f dd 91 af be 95 a0 8e bd
       -0.6838476 0.81182516 -0.34290972 -0.06964222
000030 7f 10 2a bf 36 da a5 3e 66 68 c4 be ca cf 0d 3f
       -0.6643142 0.32393044 -0.383609 0.55395186

f1.weight f4 [120, 400]
000000 d0 59 43 3e 61 5b c7 3c 93 72 0f 3d 36 78 cd bc
       0.1907723 0.024335565 0.035021376 -0.025081735
000010 9e f0 42 bd d0 79 79 3d 8a 4a 85 bb a1 dd 8b bd
       -0.04759275 0.060907185 -0.0040677236 -0.06829382
000020 05 04 e2 bc 0d 7d 82 bc f6 e0 ee 3d 71 09 b5 3d
       -0.027589807 -0.01592877 0.11664002 0.088396914
000030 dc 68 a4 3d 24 8f 54 3d 69 b9 49 bd f8 35 d2 3d
       0.08027813 0.051894322 -0.049249087 0.102642
000040 ca 9d 0c 3e 5e 56 16 3e cb 60 20 3e 29 32 ab 3d
       0.13732067 0.14681384 0.15661924 0.08359177
000050 44 b7 27 3e 05 b6 f6 3c a6 91 03 bd 1e 56 15 3d
       0.16378504 0.03011609 -0.032121323 0.03645908
000060 2e 73 a4 3d d2 15 20 3e 88 f8 08 3e 48 9f a0 3d
       0.08029781 0.15633324 0.13376057 0.078428805
000070 b4 41 fd 3d 6f 19 15 3c 18 21 d3 3d 38 53 d3 3c
       0.123660475 0.009100302 0.103090465 0.025796518
000080 45 ab 18 bd 15 fe ec bd 03 36 09 be 3f 55 e8 bb
       -0.03727271 -0.115719 -0.1339951 -0.0070902403
000090 49 aa fe bd bc e6 84 bd 8e ee 4c bd ed 31 27 be
       -0.12434823 -0.064893216 -0.05003219 -0.16327639
0000a0 0b 6c 20 bb fa 79 82 bd ec c9 90 3c 47 75 0d 3d
       -0.002447846 -0.063709214 0.017674409 0.034535673
0000b0 26 02 cc bd 15 dc 35 be d8 c4 a2 bd b9 2e 04 bd
       -0.09961347 -0.17759736 -0.07947701 -0.03227112
0000c0 6f 66 18 bd fc ce d6 bd ec 4c de bb ea 0f 36 3c
       -0.037207063 -0.10488698 -0.006784072 0.011112193
0000d0 60 47 b2 bc 9a 6b 73 bd 00 e7 ac 39 8b a1 25 3d
       -0.02176255 -0.05942879 0.00032978505 0.040437263
0000e0 e7 4a 89 bd ba 66 b9 bc ac 1f 8e bd 91 c1 c0 bc
       -0.067037396 -0.022631992 -0.06939635 -0.0235298
0000f0 75 ec b1 3d 45 2d 0d bd 5e 74 81 bc cc 4b 6f bd
       0.08687679 -0.034467 -0.015802559 -0.058421895
000100 48 02 c2 3c 6b 96 a6 3d 89 54 11 3d 8d d8 76 3c
       0.023682728 0.08134159 0.03548101 0.015066278
000110 5a aa 42 3c 16 4c e0 3d 2b ab f0 3d 8b bc f0 3c
       0.011881435 0.10952012 0.11751398 0.02938678
000120 77 04 d2 3d 68 f4 b5 3d d1 64 ee 3d 85 5e 1f be
       0.10254758 0.088845074 0.11640323 -0.155634
000130 24 35 16 3e 46 10 17 3a 52 46 83 3c 0a 76 2e 3e
       0.14668709 0.0005762618 0.016024742 0.17037216
000140 9d 12 77 bc 93 a7 10 3e 95 9a c1 3d 9f 2f 03 3d
       -0.015080121 0.14126424 0.09453312 0.032027837
000150 27 79 e6 3d ea 54 6a bc c1 7e 03 3c 1a ec 4f bd
       0.11253577 -0.014302472 0.008025826 -0.050762273
000160 48 38 64 3d 73 bd 80 bd 00 4b ce b9 ef 8e 2e 3d
       0.055717736 -0.062861346 -0.0003934726 0.04261678
000170 e6 c6 af bd 6f e7 6c bd f8 eb 0f be 72 bc 68 bc
       -0.08582859 -0.0578379 -0.14054859 -0.014205085
000180 5c cd 54 3d 67 87 97 3d 35 19 ca 3d 04 f7 7f 3d
       0.05195366 0.07398873 0.09868089 0.06249143
000190 de b1 95 bc 86 0b e0 bd 0b 5a 83 bd b3 ca 51 bd
       -0.01827329 -0.10939698 -0.06413659 -0.0512187
0001a0 dd 2e 09 bd 63 fd c9 3d e5 0e bc ba 46 eb 81 bd
       -0.033491958 0.09862783 -0.0014347701 -0.06343703
0001b0 ee f6 b5 3c 46 ff fa bc 95 eb 45 3d 5a 1d da bc
       0.022212472 -0.030639302 0.04832037 -0.026625324
0001c0 89 7b 32 bd 90 0f 86 bc 80 a9 33 3d 73 b1 20 bc
       -0.043574844 -0.016364843 0.04386282 -0.009807932
0001d0 84 3a 12 3d d7 41 cf 3d be a7 89 3d 38 ec b6 bd
       0.035700336 0.1011998 0.067214474 -0.08931774
0001e0 b6 46 d1 3c 3d cb 73 bd 6d e3 a0 bb 98 bf b2 3d
       0.025546413 -0.059519995 -0.0049099238 0.0872795
0001f0 ef 7b 90 3c 11 86 60 be 00 47 7d bd 96 7d 64 bd
       0.017637221 -0.21926142 -0.06183529 -0.05578383
000200 23 27 fd 3c ff 20 28 3e 09 3f 14 be 47 67 cc 3c
       0.03090245 0.16418837 -0.14477171 0.02495159
000210 b5 9b 80 3b 7b ab d5 3c b0 1e 2d 3e 54 96 cc 3c
       0.0039248117 0.026082745 0.16906238 0.024974026
000220 2e 36 0b 3e b4 c5 f0 bc 27 c7 4d bd 3b 59 ef 3c
       0.13594887 -0.029391147 -0.050238755 0.029217353
000230 b0 49 f3 3d 33 df d6 3c 03 14 01 be 03 2a cf bd
       0.11879289 0.026229477 -0.1260529 -0.10115435
000240 74 9f 2a bd 53 46 f2 3d 9b ee 07 3d e0 22 b4 bd
       -0.041655973 0.118298195 0.033186536 -0.087957144
000250 d6 b1 bb bd 98 52 85 bd c0 9d 8b bd 0b 90 d7 3d
       -0.09164779 -0.06509894 -0.06817198 0.10525521
000260 cd b1 e3 3c cb e2 ee 3d f5 6d 83 bc 43 3e 87 bd
       0.027794743 0.11664351 -0.016043643 -0.06603672
000270 8a ac d2 3c 57 07 20 3d e6 f6 b7 bd fc 4f 52 bd
       0.025717039 0.0390695 -0.08982639 -0.05134581
000280 b6 bd 2a bd 6b 49 d9 bd d1 d0 09 bd f9 2b a9 bd
       -0.04168483 -0.106097065 -0.03364641 -0.0826034
000290 0c c0 41 bd cd 27 21 be 0e 13 09 be 4a ae f1 bd
       -0.04730229 -0.15737839 -0.13386175 -0.11800821
0002a0 d5 d6 93 bd 4c 3b 20 be a2 76 94 bd ff 15 a6 bd
       -0.0721871 -0.1564762 -0.0724919 -0.08109664
0002b0 b9 f2 d0 bc 65 44 89 bd 3e 55 ca bd 0a a6 8c 3b
       -0.025506364 -0.06702498 -0.0987954 0.0042922543
0002c0 e4 93 87 3a d5 ba c0 bc d2 00 05 3d bb 02 c9 bc
       0.0010343757 -0.023526588 0.032471485 -0.024537435
0002d0 07 fd 43 3d 20 56 ed 3d a7 73 36 3d fa 3b e0 bb
       0.047848728 0.11588693 0.04454389 -0.0068430873
0002e0 d8 52 4a 3c 62 2a c9 3b 5e e3 5b 3d 94 fa 97 3d
       0.012348853 0.0061390856 0.05368363 0.07420841
0002f0 22 5c f9 39 8e ee d5 3d 79 dc c4 bc 24 76 e2 bd
       0.00047561625 0.10445891 -0.02403091 -0.1105769
000300 ce 28 8e bd 62 44 9f 3d e8 16 be 3d 27 82 b5 3d
       -0.069413766 0.07776715 0.09281713 0.08862715
000310 49 8a ae bd d6 9b 2b 3d 6e 98 32 3d 30 f5 df 3d
       -0.085224696 0.041896664 0.0436024 0.10935438
000320 3d 9e d4 3d b8 dd b5 3a 33 6c 92 3d 1f 52 bd 3c
       0.10381744 0.0013875281 0.071495436 0.023110447
000330 db 5e b0 bd 18 4f 8c 3d 21 41 69 3d fc af 4d b8
       -0.08611842 0.068510234 0.056946877 -4.9039707e-05
000340 7f 2a 74 3d 66 29 40 be 75 b1 0d 3c eb fe 23 be
       0.05961084 -0.18765792 0.008648266 -0.16015212
000350 ae 30 d4 bd 1d d5 26 3d b6 4a 85 bd d1 7a e3 bd
       -0.103608474 0.040730584 -0.065083906 -0.1110741
000360 38 6b 13 be 6c 7d e0 bd a5 5a 28 3c bb ce be bd
       -0.1439637 -0.10961422 0.010275518 -0.093167745
000370 5a 32 f7 3c 35 16 e1 3d 60 4d b8 3d 58 5b 9f 3d
       0.030175377 0.10990564 0.08999133 0.07781094
000380 64 af 4f be 81 cb d4 bd 90 d8 0a bc 3e a6 63 3c
       -0.2028175 -0.10390378 -0.008474484 0.013894616
000390 40 34 98 3c 5a eb c0 3c c7 17 9f 3c f2 cb 3c bd
       0.018579602 0.023549724 0.019420518 -0.046092935
0003a0 c8 d4 38 3d a6 18 0b 39 5b ad bf bc ec ed 5e bd
       0.0451248 0.00013265255 -0.023398092 -0.05442612
0003b0 49 69 ef bd 4c dc d7 bc f2 3b 4e bd 10 c4 a0 3c
       -0.116900034 -0.026350163 -0.050350137 0.01962474
0003c0 f4 92 df bd 83 63 c0 bd 03 63 75 bd 19 52 f9 bd
       -0.10916701 -0.0939398 -0.059908878 -0.12173862
0003d0 9b 19 a4 b9 6d 5e a8 bd bb 11 79 bd 35 43 19 be
       -0.00031299595 -0.08221135 -0.060807925 -0.14967044
0003e0 bb 24 26 bd 82 7d f7 bb 7c cd 83 bd fd e7 84 bd
       -0.040562373 -0.0075528035 -0.064356774 -0.06489561
0003f0 63 06 81 bd e8 67 f0 bd 3c fa 13 bd 10 33 d2 3d
       -0.06300046 -0.117385685 -0.036127314 0.10263646

f1.bias f4 [120]
000000 83 d9 b6 3e 75 4b 70 bc 74 9b a6 3d 48 cc 53 bd
       0.35712823 -0.014666428 0.08135119 -0.05170849
000010 88 50 b4 3d 26 01 ec 3d f8 e9 33 3e 3e d7 1f 3e
       0.088044226 0.115236565 0.17569721 0.15609452
000020 7b e2 01 3d 6f f4 9a bd 2f d5 24 be ba 59 80 bd
       0.03171013 -0.07566153 -0.16096948 -0.06267114
000030 e0 58 8c 3e b6 f6 a9 3e 15 d4 4c 3e c6 83 6f 3e
       0.27411556 0.33196038 0.20002778 0.23390111
000040 80 31 28 3e fe 04 f9 bd 38 a9 6d 3d 10 0b 05 3e
       0.16425133 -0.12159155 0.058022708 0.12992501
000050 da f7 13 be 12 81 b7 bd 87 6a 80 3c 59 e4 4c bd
       -0.14450017 -0.08960165 0.015675796 -0.050022457
000060 45 ea 91 3d 2c cd ed 3b 14 d8 e7 ba 64 68 cd 3b
       0.071247615 0.0072571244 -0.0017688298 0.006268548
000070 00 01 04 bd f1 58 00 be 93 f8 1c bc fb a3 88 3e
       -0.032227516 -0.12533928 -0.009580749 0.26687607
000080 b1 0c d2 bd 36 99 61 be d5 6b 37 3d c8 e2 57 3d
       -0.10256327 -0.22031102 0.04478057 0.05270651
000090 15 8a 1c bd cd 31 8c 3d 4b 88 96 bc 8c 7e 58 3d
       -0.038217623 0.06845436 -0.018375536 0.05285506
0000a0 bd ab 27 bd b2 a0 81 bb f7 8a 85 3c 4c 52 17 3e
       -0.040935267 -0.003955924 0.016301615 0.14777488
0000b0 be 37 40 3e bc de 2e bd ae 57 ae 3d 3c 68 54 bd
       0.18771264 -0.042692885 0.08512817 -0.05185722
0000c0 26 d0 a3 bd 2b 87 94 bd b2 ac f9 3b b8 f2 35 3e
       -0.079986855 -0.07252344 0.007619464 0.17768371
0000d0 1b fd 4b bd e7 ab be 3d f5 d8 0e be 3f cf 95 3d
       -0.049801927 0.093101315 -0.1394995 0.0731492
0000e0 28 ff 79 bd df 86 27 3e 96 81 b9 3e 0c c1 54 bd
       -0.06103435 0.16360043 0.3623168 -0.051941916
0000f0 8b b9 7a 3d 9e b8 4e bd fb 27 1e 3e a9 7d 9e bd
       0.061212104 -0.050469033 0.15444939 -0.077388115
000100 5e a0 b9 3c 67 cf 96 bd d4 fa a9 bd 4b 3b 32 be
       0.022659477 -0.073637776 -0.08299795 -0.17405431
000110 f2 ff e0 3d 59 25 95 3b d6 24 6d 3e d3 1c 4c bd
       0.10986318 0.0045515713 0.23158583 -0.049832176
000120 cd 24 1d bc 32 e5 97 3d 41 45 45 3c a6 08 d5 bd
       -0.0095912935 0.074167624 0.012040437 -0.1040204
000130 2e f4 cb bc d7 e3 ae 3d 13 36 0c 3e a9 a3 2f 3e
       -0.024896707 0.08539551 0.13692503 0.17152275
000140 41 c8 d8 3c b0 50 8b 3d b1 8d 15 bd 5e 6b e7 bc
       0.026462676 0.06802499 -0.03651208 -0.028249439
000150 dd fd be bd 8a dc bd 3d c8 67 bc 3d 3f 56 18 bd
       -0.09325764 0.0927058 0.09199482 -0.037191626
000160 f2 2e 10 3e 71 d7 e8 bd fd c9 04 3e b7 d7 84 bd
       0.14080408 -0.11369217 0.12967677 -0.06486457
000170 a9 93 9c 3b 53 fa 3e 3c 2f b8 8e bd dc 19 0e bd
       0.0047783446 0.011656362 -0.06968724 -0.03469263
000180 18 fe 84 bd 37 98 3b 3e 59 a9 1c be 8b 5c 51 3c
       -0.06493777 0.18319784 -0.15298976 0.012778412
000190 2b 61 80 3e 9c 81 d8 3d 71 a4 03 3e dd 0e 05 3e
       0.25074133 0.10571596 0.12855698 0.12993951
0001a0 fc a6 83 3c 91 17 be bd 9e 2c 5d 3d 87 2b e1 bd
       0.016070835 -0.09281839 0.05399763 -0.1099463
0001b0 bb e0 8e 3e 9c c3 41 bd ac be 50 3e 83 b1 b7 bd
       0.2790583 -0.04730569 0.20385236 -0.089694045
0001c0 26 77 90 3d 9a ae b2 bd 92 ee 62 bc 8b e9 cc 3d
       0.07053976 -0.08724709 -0.013850825 0.10005482
0001d0 2b 06 6e 3d 8c 4b 99 3c 57 ba 87 bd 3d 62 a3 3b
       0.05811135 0.018712781 -0.066273384 0.004986076

f2.weight f4 [84, 120]
000000 ad 9f 4b ba bd 31 46 bd 3c 6a 04 be 1e bb 9e bc
       -0.0007767629 -0.048387278 -0.1293115 -0.019376334
000010 56 a9 fe ba 13 c4 46 3d 62 e0 9c 3c 0b 78 29 3e
       -0.0019429128 0.048526835 0.019149963 0.16549699
000020 06 04 86 3d 9f f4 51 bd 4e 76 c6 bd fd da 10 bd
       0.06543736 -0.05125868 -0.096905336 -0.035365093
000030 0d e3 8a bc 79 1f c1 bc 53 e8 58 3d 0d de 08 bd
       -0.01695397 -0.023574578 0.052955937 -0.03341489
000040 2c a0 53 3d d7 e9 81 3b 70 8f 81 bc e5 25 c5 bd
       0.051666424 0.0039646435 -0.015815467 -0.096263684
000050 41 99 0f bd 89 86 31 be bf de 55 3d 2e d0 e0 bd
       -0.035058264 -0.17336477 0.05221438 -0.10977207
000060 7c ca 56 bc fa 72 67 3d 7d 6f 5d bc 76 5f 43 3d
       -0.0131097995 0.056506135 -0.01351535 0.04769846
000070 43 ea 29 3d ab 35 b8 bd bf 3b 2a bc c8 1d 1f 3c
       0.041483175 -0.08994611 -0.010390221 0.00971169
000080 4c 04 05 bd c1 9b 9f bd 20 1f e8 bd 30 f6 e0 bd
       -0.0324748 -0.077933796 -0.113340616 -0.109844565
000090 d5 8a 2d be 66 c8 1e 3d bc 62 93 bd 68 a4 29 bd
       -0.16947491 0.038765334 -0.071965665 -0.041416556
0000a0 b8 f1 6e 3d 64 73 55 3d b1 e5 dd 3d 65 ec 77 ba
       0.05833599 0.052112 0.10834826 -0.0009457528
0000b0 bb 7b f4 3d f3 e5 42 bd 93 c3 d6 bd 09 1b 00 3d
       0.11937662 -0.047582578 -0.104865216 0.031275783
0000c0 6b 40 2a bc 6e 2d 99 3c 7c 73 5f 3c 33 b4 6f 3d
       -0.010391335 0.01869842 0.013638373 0.05852146
0000d0 d9 2b a2 bd d1 fb bc 3d e3 f6 27 3d 12 0f 00 3c
       -0.079185195 0.09227718 0.041006934 0.007816093
0000e0 eb ad 97 3d 31 80 78 3d 5c 94 00 3e d6 38 d7 3d
       0.07406219 0.060669128 0.12556595 0.105088875
0000f0 9f da 56 3d 90 79 26 bd e5 bc d4 3d b5 33 81 bd
       0.052454587 -0.040643275 0.10387591 -0.063086905
000100 af a7 8d bc b9 86 90 bd a8 52 16 bd 08 ec 36 3d
       -0.017291872 -0.07056946 -0.03669992 0.04465869
000110 0c c6 11 3d ca 73 2e bd 8c bb 8b bd 60 3e d4 bc
       0.035589263 -0.042590894 -0.06822881 -0.025908649
000120 8c 7b 89 3b 27 b3 c0 bb 80 e5 2d bd a4 29 8a bd
       0.004195636 -0.0058807316 -0.042455196 -0.067462236
000130 10 cd 52 bc 92 4d b4 bc 6b b1 75 3d 7c eb 81 3d
       -0.0128662735 -0.022009645 0.059983652 0.06343743
000140 83 81 e8 bd e3 03 9b 3d b3 0d ec 3c 33 50 05 bd
       -0.113528274 0.07569101 0.028815126 -0.032547187
000150 12 7c c4 bd a1 f5 1c 3d 64 85 b3 3d c3 a5 be bd
       -0.09593977 0.038320187 0.087656766 -0.0930896
000160 15 32 c1 3b 1a 75 b4 bc 49 bb 13 be 9b 03 a8 bd
       0.005895863 -0.022028495 -0.14426912 -0.08203813
000170 71 24 cf bd 46 ed ee 3c 34 85 00 3e 3f be 34 3e
       -0.101143725 0.029165875 0.12550813 0.17650698
000180 18 74 af bd 02 35 a5 bd 57 bd 6d bd 78 7c ae bc
       -0.08567065 -0.08066751 -0.058041897 -0.021299586
000190 fc 68 d8 3d a8 08 b7 bd c9 01 93 3d db d4 12 be
       0.10566899 -0.08937198 0.07178075 -0.1433901
0001a0 42 5b 7c bd 2f c8 fd bc 9a 91 28 3d bb 7d b1 bd
       -0.061610468 -0.030979244 0.04115448 -0.08666559
0001b0 61 25 bb bd 48 02 65 bd 17 8a 00 be 82 1a 61 bb
       -0.09137989 -0.05591038 -0.12552677 -0.0034348075
0001c0 13 bf e1 3d 84 6c 92 bd 7c 2e 41 3d cb fd b2 3d
       0.11022773 -0.07149604 0.04716347 0.087398134
0001d0 c8 7f 9d bd 7e d0 07 3d ae 41 4c bd fb 1e 30 be
       -0.07690388 0.033157818 -0.049867325 -0.17199318
0001e0 7a d2 21 3d f2 b3 a7 bd f4 54 30 bd 0c 72 88 bd
       0.039507367 -0.08188619 -0.043049768 -0.06662378
0001f0 3c 2a 1c 3d b8 8a a8 bd 4f dd a4 bd c6 58 a0 bd
       0.038126215 -0.082295835 -0.08050024 -0.07829432
000200 fa 75 80 3c b9 04 43 bd 32 21 2f 3d c7 a9 eb bd
       0.015681256 -0.047611926 0.042756267 -0.11506992
000210 c3 cd d7 3c 2b 30 b9 3d 74 92 25 bd 47 90 a8 bc
       0.026343232 0.090423904 -0.04042287 -0.02057661
000220 98 48 78 3d fb 18 71 be 16 42 31 3b 47 e5 f5 3a
       0.060616106 -0.23544686 0.0027047447 0.0018760347
000230 35 5a 96 bd 52 d0 17 3e 82 ba c1 bd ec 12 ac bd
       -0.073414244 0.14825562 -0.09459402 -0.084020466
000240 9b 29 93 3d 65 7f 1f 3d 92 4a 00 bd f9 71 a4 3d
       0.0718567 0.038939852 -0.031321116 0.08029551
000250 ae d7 b2 bd 62 29 3a bd 31 b6 f3 3c 0d dc b0 bd
       -0.08732544 -0.045449622 0.029749962 -0.08635721
000260 1c 5f 7a bc ec b7 c5 bb 70 9f 5a bd 52 27 a5 3d
       -0.015281465 -0.006033888 -0.053374708 0.080641404
000270 db cc e4 bd 4b 04 f0 bd 49 27 65 bd eb 52 69 bc
       -0.111718856 -0.11719569 -0.05594567 -0.014240961
000280 f8 df a8 3d 88 60 1e 3d dc e7 c1 bd 3a 32 d7 3c
       0.08245844 0.038666278 -0.09468052 0.026269067
000290 53 88 9f bc 30 b8 05 3c 62 31 71 3d 82 8a 06 be
       -0.019474184 0.0081615895 0.058884986 -0.13138774
0002a0 fd c5 20 3d 7c 17 bc bd 7f 8d b9 3d 8b 06 82 3d
       0.039251316 -0.09184167 0.09060191 0.06348904
0002b0 6a 2c bd 3d af a4 9f bd c0 8f fd bd c7 0d 20 bd
       0.09236987 -0.07795083 -0.12380934 -0.03907564
0002c0 b3 37 bf bc e4 77 82 bd 27 02 d4 3c 38 4a 9b 3d
       -0.02334199 -0.063705236 0.025879933 0.075825155
0002d0 71 5a f6 bc 9a 82 47 bd 84 44 a6 3c e7 b4 24 bd
       -0.030072423 -0.048708536 0.020296343 -0.040211584
0002e0 15 ed a9 3d fc d7 85 3d fe 0b 9a bd 76 0f ec bc
       0.08297173 0.065353364 -0.075218186 -0.028815966
0002f0 31 60 43 3c 17 af 42 be 89 6f 63 bd 9a 53 3b 3e
       0.011924789 -0.19012104 -0.05552629 0.1829361
000300 5b d4 1b 3d 63 c0 1d be 35 1f 34 bd f2 21 b9 bd
       0.038044315 -0.15405421 -0.043975074 -0.09039678
000310 65 61 c7 3d 40 62 a2 bb 51 a8 27 3d 81 79 c2 3c
       0.097353734 -0.00495556 0.040932003 0.023739578
000320 da 81 79 3b 8b ff 0a 3d b4 d1 69 bd b7 79 4e bc
       0.0038071782 0.03393511 -0.057084754 -0.012602261
000330 dc 5a 6b 3e 03 fb a4 bd 33 20 6e bd 5b 80 ab 3d
       0.22983879 -0.08055689 -0.058136176 0.08374091
000340 c8 e5 8e bd 2d 14 0f 3d 8b 27 51 bd 89 34 4d 3d
       -0.06977421 0.03493135 -0.0510631 0.05009893
000350 11 46 a9 3d a9 d5 ef bd 2f 89 6b 3e 88 88 37 bd
       0.08265317 -0.11710674 0.2300155 -0.04480794
000360 ae dc 92 bd ef 29 88 bd 89 9d da 3c 6b 77 7a bd
       -0.071709976 -0.06648623 0.026686447 -0.061149042
000370 f4 14 ba bd b0 a3 6d 3c 34 d6 a5 bd b5 e0 4e 3d
       -0.09086028 0.014504358 -0.08097497 0.050507266
000380 ba 9e bd bd 00 c4 33 bc fe 76 5b 3d 2f 2f 2b bd
       -0.0925879 -0.010972023 0.053580277 -0.041793045
000390 7d 71 1f bd e1 54 11 bd 3e 5b 83 bd 33 46 8c bc
       -0.03892659 -0.035481337 -0.064138874 -0.017123317
0003a0 9a b5 62 bd 22 b7 93 3d ee 82 8a 3c be 62 8d 3c
       -0.05534897 0.07212664 0.016908135 0.017258998
0003b0 1e 11 cb bd 7e bb de bd 1c aa d5 bd 0a 30 7a bd
       -0.09915374 -0.10875605 -0.104328364 -0.06108097
0003c0 e9 bd d4 bc f3 40 07 3e 55 bd 0a 3e 75 e1 5a bd
       -0.025969462 0.1320837 0.13548787 -0.05343767
0003d0 53 c6 1e be 4c 5e 9d bc de a7 29 bc 0d 7d d5 bd
       -0.15505342 -0.019210003 -0.010354964 -0.10424242
0003e0 09 14 12 bd 61 c2 19 3e 26 dd fe bc 8b cf 83 3d
       -0.03566364 0.15015556 -0.031111311 0.0643607
0003f0 05 30 cc bd 90 8e 13 3d fb 3d c4 3d 8a 4e 4a bd
       -0.099700965 0.03602463 0.09582134 -0.049391307

f2.bias f4 [84]
000000 78 26 fa 3c 27 f7 99 bd ee 8f b2 3d 5e f2 0a be
       0.030535921 -0.07517844 0.08718859 -0.13569018
000010 02 7d cf bb fc cd a1 3e ef 03 d0 bd 2b 52 76 3c
       -0.0063320408 0.31602466 -0.10157 0.015034239
000020 d5 bb 13 3f 7d b8 23 3d 8a 07 91 3c f8 f0 9c bd
       0.57708484 0.039970864 0.01770379 -0.07663149
000030 5d 99 4d 3e 6b e8 87 3d 75 99 a7 bd f8 f1 97 bd
       0.20078035 0.06636127 -0.081835665 -0.07419199
000040 d0 ef fd 3d 68 ce d9 3d b9 41 34 3e 1b 04 21 3e
       0.12399256 0.10635072 0.17603196 0.15724222
000050 76 01 d8 3c e1 8f 32 3f d0 6b 0f bd 1f ac 87 3e
       0.026367884 0.6975079 -0.035014927 0.26498505
000060 e8 79 28 3e e2 9f 90 3e 02 69 cc bd 1a 16 f1 3d
       0.16452754 0.2824698 -0.09980966 0.11771794
000070 28 83 fb bd 31 8d 9b bd 1f cc cf 3e c5 60 b6 3e
       -0.122808754 -0.075952895 0.4058542 0.35620704
000080 94 ae 30 3e 76 e3 fa 3d 6f b9 50 3e 24 1a 8d bb
       0.17254096 0.12250416 0.20383237 -0.0043060947
000090 38 d1 e1 bc cf bb 7f 3e cb c3 28 3e 18 e9 d8 3d
       -0.027565584 0.24973987 0.16480939 0.10591334
0000a0 df d4 4c 3d bc 45 7d 3e 15 1b b8 bc a2 89 9c 3e
       0.050007697 0.24733633 -0.022473851 0.30573756
0000b0 d5 21 8e 3e e7 78 20 3d 95 58 cb 3d 01 91 a8 3e
       0.27760187 0.0391778 0.09929005 0.3292313
0000c0 67 46 6f 3e be 00 59 3c 82 fe 67 bc 78 8e 71 3d
       0.233667 0.013244806 -0.0141598005 0.05897376
0000d0 8b f3 0e bd 34 95 af bb 2a 00 23 be d0 56 4f 3e
       -0.03490023 -0.0053583626 -0.15918031 0.2024796
0000e0 5e b3 b1 3e f6 46 d2 3e e9 95 c1 bd 92 f4 9a 3e
       0.3470716 0.41069764 -0.09452421 0.30264717
0000f0 93 b3 1a 3e 58 be aa bd 35 96 85 bd 93 3b 24 3c
       0.15107565 -0.083370864 -0.0652279 0.010023969
000100 5b 48 a6 3e 28 f7 77 3d da 3f e2 3c bd 78 f1 3e
       0.32477078 0.06053844 0.027618337 0.47162428
000110 69 e6 17 3e 0a f3 85 3e 15 1b 2d 3d 3b e7 a3 3e
       0.14833988 0.26161987 0.042262156 0.32012352
000120 fc 54 4c 3e b0 95 f8 3c 6c b7 16 bd 31 d3 a0 bd
       0.19954294 0.030344814 -0.03679602 -0.078527816
000130 3b 88 c6 3d a3 30 08 3f ab 7e 3c bd 2b 21 ef 3d
       0.09693953 0.53199214 -0.046019237 0.11676248
000140 cb 8f d5 3c 38 60 69 be df 7a 51 bb 2b 8f 49 3e
       0.026069542 -0.22790611 -0.0031964106 0.1968352

f3.weight f4 [40, 84]
000000 f1 a3 47 bc 96 78 48 3e d0 67 c2 3c 5c 9b 18 3e
       -0.012185083 0.1957725 0.023731142 0.14903015
000010 2e d8 64 bd de cf 06 3e fe 94 e9 3c ee 91 a8 3d
       -0.055870228 0.13165233 0.028513428 0.08230959
000020 f4 2b 1c bd 37 70 f3 bd 91 c6 2e 3e de c9 f0 3d
       -0.038127854 -0.11886638 0.17067935 0.11757253
000030 ec 2c 87 3d c6 b9 88 3c 32 ea c3 bc fb c8 c9 3c
       0.06600365 0.016690146 -0.023915384 0.024631968
000040 d8 20 02 3d e3 85 31 3d 96 bf 1c 3d 74 45 10 3b
       0.031769603 0.043340575 0.038268648 0.0022014054
000050 18 8a c4 3d 10 fe ef 3d 88 38 e5 3d 2c b2 ca bd
       0.09596652 0.117183805 0.11192423 -0.09897265
000060 a6 af ad 3b 45 5f 51 3d 77 11 bb 3d a9 47 04 3e
       0.00530048 0.051116247 0.091341905 0.12917961
000070 3b b8 87 bd c3 fa 35 bd d4 39 62 3d a3 61 d9 3d
       -0.06626936 -0.044428598 0.05523093 0.10614326
000080 eb 7a 21 be 5d 61 5b bd 4a 0d c1 bd ae 2b 5c 3c
       -0.15769546 -0.05355965 -0.09426363 0.013438148
000090 f7 68 34 bc 65 82 14 3c 52 dc a2 bd 61 f4 8c 3d
       -0.011011354 0.009064292 -0.07952179 0.06882549
0000a0 6a f6 06 bd 99 f2 82 bd 55 8c 00 3e f4 3e ec bc
       -0.032949843 -0.06393928 0.12553532 -0.028838612
0000b0 7c 07 ff bc b6 9d da bd c3 2d 08 be 69 84 49 3d
       -0.031131499 -0.10674612 -0.13298707 0.04919854
0000c0 91 f2 93 bc 87 c0 03 3d ad 34 82 bb d6 1d c2 bd
       -0.01806 0.03216603 -0.0039735646 -0.09478347
0000d0 7a bd 92 3d d5 ba 87 bd 44 f0 af 3b 54 ba 9b bd
       0.07165046 -0.06627432 0.005369218 -0.07603899
0000e0 04 bd 34 3b 9f 21 f5 bb 8f ee 15 be c1 83 c7 3c
       0.0027578482 -0.0074808146 -0.14641784 0.024354817
0000f0 7f 3b 2e bc 9c 79 e7 bd 3b 03 07 3d 67 77 06 3e
       -0.010634302 -0.11302492 0.032962065 0.13131486
000100 3c 3c 31 bd 3e d8 b1 bd 6b 00 4d 3c 58 cc b5 3d
       -0.043270335 -0.08683823 0.012512307 0.08876866
000110 2c 0e f9 bd 84 3e 09 3e c4 50 9e 3d d0 ce 9a bd
       -0.12160906 0.13402754 0.077302486 -0.075589776
000120 a4 b7 05 3e 92 5f 33 3d 51 67 81 bd 42 82 00 3e
       0.13058335 0.043792315 -0.06318534 0.1254969
000130 ab c9 da 3c a7 05 81 bd 1a 4c 2d 3d b4 c9 66 bd
       0.02670749 -0.06299906 0.042308904 -0.056344703
000140 db 22 d2 bd a3 3e bf 3b 39 67 a0 bd 57 52 8a bd
       -0.102605544 0.0058363243 -0.07832188 -0.06753986
000150 3d f1 66 3c 71 29 bd bd 9f 23 75 bc 20 8a fd 3b
       0.014095602 -0.0923642 -0.014962106 0.007737413
000160 db 74 91 3d b2 ad ba bd aa ad 8a 3c 0f 1e cd 3c
       0.071023665 -0.09115161 0.016928513 0.025038747
000170 16 ec 9b 3d e1 92 34 3d 9a 6b 01 be 9a 7d b4 bd
       0.07613389 0.044085387 -0.12638703 -0.08813019
000180 57 9d 90 bc 9e 8d 2a 3d 95 90 9d bd fc ab e0 3d
       -0.01765315 0.041638963 -0.076935925 0.109703034
000190 1f c4 bd 3d fc 3b a0 bd 3b 48 24 3b ed fc 88 bd
       0.09265923 -0.07823941 0.0025067467 -0.06688867
0001a0 99 df 01 3d 09 f1 2a bd 51 e2 a0 bc 90 f3 06 bd
       0.03170738 -0.041733775 -0.019639166 -0.032947123
0001b0 18 25 d8 3c be ea e7 3c 37 32 62 3c d3 6b e0 bd
       0.026384875 0.028310176 0.013805917 -0.10958066
0001c0 83 38 dc bd e9 84 0c 3e 36 c2 4d bd 68 8f 31 be
       -0.10752966 0.13722576 -0.050234042 -0.17339861
0001d0 14 ef 81 3d 87 04 33 3e b8 7f a9 3d 41 57 a9 3d
       0.06344429 0.17482196 0.082763135 0.082685955
0001e0 0e 0c cd bd f4 ca 3a bc f8 c1 a3 bc a5 75 5b 3d
       -0.10012065 -0.011400927 -0.019989952 0.05357899
0001f0 3b 89 b6 bd 32 6b 85 bd 85 0a 9e 3d 54 76 b0 bc
       -0.089128934 -0.065145865 0.0771685 -0.021540798
000200 e6 a6 f4 bc 4b 21 92 bd 3e 15 8e bd ce be 73 3e
       -0.02986474 -0.071352564 -0.069376454 0.23803255
000210 8a 99 1f 3e 0d 72 f6 3d e7 5a f4 bc 9a 41 1f 3d
       0.15585914 0.12033472 -0.029828502 0.038880922
000220 c1 bf d7 bd ab 7b c0 3c 43 6d 61 bd 4e f2 60 bd
       -0.10534621 0.02349647 -0.05503584 -0.05491858
000230 20 98 f3 bd da 53 31 3e 79 65 97 3d e0 2d 4c 3d
       -0.1189425 0.17317143 0.07392401 0.049848437
000240 e8 56 0b bd 48 ec 04 bc cf 9e 3c bb 4d 78 23 3d
       -0.034018427 -0.008112974 -0.002878118 0.03990965
000250 a5 d1 0e 3e 78 32 5b bd 53 d8 c6 3c 23 92 9a bd
       0.1394716 -0.053514928 0.024273073 -0.075474046
000260 f7 63 7c bd cd bb b4 bd 4d 12 82 3d fa fc f8 3d
       -0.06161877 -0.08824883 0.06351147 0.121576265
000270 04 9d 05 bd e4 3c 13 be 7f 73 3e bd 36 a0 0d bd
       -0.032620445 -0.14378697 -0.046496864 -0.034576617
000280 99 21 3f 3d 35 7b 45 3c 5f 55 ae 3c cd c6 31 3d
       0.0466629 0.012053301 0.021280942 0.04340248
000290 a9 09 b2 bd 7e 63 d0 3d 37 36 ec 3d 12 d1 df bd
       -0.08693249 0.10175227 0.11533778 -0.10928549
0002a0 fd c4 75 3d 47 bb 56 3e 82 d4 9e 3d 5f 42 96 bd
       0.060002316 0.20969878 0.077553764 -0.07336878
0002b0 36 bc 3b bd 54 5f af 3c 05 8d 9c 3c cf e0 b0 bd
       -0.04583379 0.02140776 0.019110212 -0.08636629
0002c0 67 c1 25 bd ac 1f 3b 3d 6e e0 7a 3c d8 d1 7f 3d
       -0.040467646 0.0456845 0.015312297 0.062455982
0002d0 7d a4 40 be ee 4a 68 3d eb 04 05 3d 82 b3 a5 bd
       -0.18812747 0.056712084 0.032475393 -0.08090879
0002e0 34 a5 e0 bd f8 be ea 3d 90 7b c9 3c ce 2d 7a bd
       -0.1096901 0.11462206 0.024595052 -0.06107884
0002f0 9a a1 d4 3d 8e 28 1e 3e 88 9b 08 3e 00 88 4a bd
       0.103823856 0.15445158 0.1334058 -0.049446106
000300 8c 25 1c 3a 4a 5a 06 be 0c 42 34 3c 20 e6 a1 3d
       0.00059565227 -0.1312038 0.011002075 0.07905221
000310 4b 14 7c 3d 14 c4 c7 3d 0c aa 7c 3d e3 1a 22 3e
       0.06154279 0.09754196 0.061685607 0.15830569
000320 a3 d0 54 3d 79 da 80 3d 71 c2 f4 3b cd de aa 3c
       0.051956784 0.0629167 0.0074694683 0.020858193
000330 fb 69 a7 3d 64 7f 67 bd ba fd e9 bd c3 60 99 bd
       0.08174511 -0.056517974 -0.114253476 -0.07489159
000340 ea a5 bc 3d b2 aa f8 bd 70 21 75 bd ad e3 bc 3c
       0.09211333 -0.121419325 -0.05984634 0.023057783
000350 fa 1c 6c bc 21 dc f1 3c 44 50 b2 bd 7d 80 2f be
       -0.014411205 0.029523911 -0.08706716 -0.17138858
000360 59 1f d9 bd 17 93 0b 3e 70 c8 18 be de 3a 84 3c
       -0.10601682 0.13630329 -0.14920211 0.016141351
000370 1c 22 a4 bd 83 3f 11 3e 38 97 2b 3e 88 07 c7 bd
       -0.08014318 0.14184384 0.16756904 -0.09718233
000380 ea fb 8c bd ce c8 27 be 74 fe 07 3d fe 2d 25 bd
       -0.06883986 -0.16385195 0.03320165 -0.040327065
000390 c5 a3 09 3d 69 57 7d 3d bd a5 2a 3d 6b 8e 72 3d
       0.03360345 0.06185094 0.041661967 0.05921785
0003a0 81 28 10 bc 5e 81 1b bd 76 da e2 3d d7 c6 e3 bc
       -0.008798719 -0.03796517 0.11076824 -0.027804775
0003b0 65 78 17 bd 3d 75 0b 3e 65 7e 9a 3d 1d 04 c7 bd
       -0.03698005 0.13618942 0.07543639 -0.097175814
0003c0 a2 0a e7 bd c1 e0 f1 bc 2a 21 81 3d 53 74 23 3e
       -0.11281325 -0.029526116 0.06305154 0.15962343
0003d0 5c 23 cf 3d 2d 62 2c bd 80 07 1c be ea 50 23 bb
       0.10114166 -0.042085815 -0.15237236 -0.0024920055
0003e0 08 ef a7 3d 8d 62 0c 3c e7 0f 42 3d 55 97 06 be
       0.081998885 0.008568418 0.047378447 -0.13143666
0003f0 d7 6c a1 bd 97 30 76 3d 58 4d b7 bd 1f 3f 2c 3c
       -0.07882088 0.060104933 -0.08950299 0.010513096

f3.bias f4 [40]
000000 fe d0 30 3e 5f 7f 28 3d a7 6b 22 bd 8b 54 61 3e
       0.17267224 0.041137096 -0.039653447 0.22004907
000010 0b ec f4 3c 1e c8 08 be dd f9 af 3d 1f ec d4 3c
       0.02989771 -0.13357589 0.085925795 0.025991498
000020 d7 4e 37 bc 46 45 2d 3e 68 01 18 3f 8a 5e 6f bd
       -0.0111882305 0.16920957 0.59377146 -0.05843977
000030 65 80 69 3e ff ec bc 3c 4d 8e db bd bd 87 fc 3e
       0.22802885 0.023062227 -0.10720501 0.4932231
000040 b2 6b f5 3e 15 02 1c 3e 69 fc 11 bd ac ac 0b 3f
       0.47933728 0.15235169 -0.035641108 0.5456035
000050 69 51 c2 3e 39 f5 81 be 1c e5 8c 3e 05 21 e5 bd
       0.37952736 -0.25382403 0.27518547 -0.111879386
000060 fa 9c c2 bd 80 64 ed 3e e4 7c c1 3e 29 de 26 3d
       -0.09502597 0.46365738 0.37790596 0.040739212
000070 65 3e 14 3f 78 8f 5c 3e 5d f8 28 3e 48 9f 5f 3e
       0.57907706 0.21539104 0.16500993 0.21838105
000080 7c fe cf 3d bc e2 e2 3e 85 bb 0d 3e 4e 79 9b 3e
       0.10155961 0.4431361 0.13841064 0.30365986
000090 0e 4f 11 3e ea 5c a6 3e 7b cd c4 bd 13 2e b8 3e
       0.14190313 0.32492763 -0.09609505 0.35972652

f4.weight f4 [10, 40]
000000 95 27 99 bd a0 60 2c 3d 6d a3 50 be d4 09 0d be
       -0.07478253 0.042084336 -0.20374842 -0.1377328
000010 0e 44 e5 3c 48 82 7e 3d 19 17 23 3e d2 4f 46 3d
       0.027986553 0.062135965 0.1592678 0.048415966
000020 66 01 0f be 27 b5 1b 3f e0 0d 35 3c ef 77 c4 bd
       -0.13965377 0.6082329 0.011050671 -0.09593188
000030 f7 1f 91 bd 1c 4f 92 3d 3f f0 cf bd 47 29 af be
       -0.07086175 0.07143995 -0.10153245 -0.3421118
000040 56 58 12 be 02 5d 14 be 4e b5 e7 3d 20 07 cf 3e
       -0.1429151 -0.14488605 0.11313878 0.40435123
000050 5d 62 64 3e ae ca 93 3e 10 b0 18 3e d3 f0 4e 3e
       0.22303148 0.2886557 0.14910913 0.20209055
000060 03 4c 9f 3c b8 71 7b 3e 5e 61 08 bc 1d 6c 64 3e
       0.019445425 0.24555099 -0.008323995 0.22306867
000070 8b 75 5a bd b0 50 c0 ba de 17 14 bd 8b 66 2e 3e
       -0.053334754 -0.0014672484 -0.036155574 0.17031305
000080 2b 30 21 3e 8e 47 90 3e f8 20 6f be 71 96 30 3e
       0.15741031 0.28179592 -0.2335242 0.17244889
000090 c9 ea c9 3e 18 78 61 be 96 5a 16 3e 37 e1 30 3f
       0.3943694 -0.22018468 0.14682993 0.6909365
0000a0 92 6a 12 3d 5f b6 67 3d c3 ea a9 be c6 a8 64 3e
       0.035746165 0.056570407 -0.3318692 0.22330007
0000b0 61 38 ea 3e 14 6b e9 bc 3d 27 d3 bd 43 ac 43 3e
       0.4574614 -0.028493442 -0.103102185 0.19108681
0000c0 69 d9 1c bd 14 52 e4 3d 3a 6f d4 bd b2 2a 23 bd
       -0.038293276 0.11148468 -0.10372777 -0.03983564
0000d0 12 96 91 3e 0f 36 95 bd 72 1c a7 3a 73 0a 94 be
       0.28434807 -0.072857015 0.0012749566 -0.28914222
0000e0 8c 24 f5 bd fe f6 6e 3e 04 68 d8 3a 29 0b 16 be
       -0.119698614 0.23336408 0.0016510491 -0.14652695
0000f0 97 dd 77 3e 39 74 de 3c 9b 77 ea bd 24 36 4d 3d
       0.24205624 0.027155029 -0.11448594 0.05010046
000100 8e bb ab bd 2b 7a 97 bd 64 a2 02 be 96 71 0c 3f
       -0.083853826 -0.073963486 -0.1275726 0.5486082
000110 24 3b 05 3e 9f 15 c0 be 45 2f ae bd 22 4b 33 3e
       0.13010842 -0.37516496 -0.0850511 0.1750913
000120 d2 36 97 3d 61 7e 33 3d a0 d5 47 3e 5b b3 9e 3e
       0.07383503 0.043821696 0.19515085 0.30996212
000130 dc 5e 34 3f 1e 9b 95 bb e5 3e 85 3d ad cf 43 3e
       0.70457244 -0.0045656106 0.06506137 0.19122191
000140 57 0d 4a bd 95 24 a6 3e db 05 25 be 7c 5e 2e be
       -0.049329128 0.32449785 -0.16115515 -0.1702823
000150 f7 1f e7 bc c3 3b 16 bd 90 ad 56 be 71 d5 d3 3d
       -0.028213484 -0.036678087 -0.20964646 0.10343445
000160 1d 01 01 be f5 4a a9 3e 9e da 02 3f 1e 3b 25 be
       -0.12598081 0.33065 0.51114833 -0.16135833
000170 3e 1f 37 3d cb 4a 11 3f 1d 78 42 3e e3 15 3d 3e
       0.04470753 0.5675475 0.18991132 0.1846538
000180 75 8e ab 3e 0f 96 21 be 1a 5b 12 3e be 3a f5 3d
       0.33507124 -0.15779899 0.14292565 0.11974095
000190 03 47 93 3d 12 05 21 3e 78 58 05 3f d7 e6 21 bd
       0.07191279 0.1572459 0.5208812 -0.039526787
0001a0 02 a7 02 3e fd 7b 3f bd 29 08 76 3e 65 b5 76 3d
       0.12759021 -0.046749104 0.2402655 0.060231585
0001b0 62 6e 88 3e f9 57 3c 3c 78 c7 e5 3d 75 93 8e 3e
       0.26646715 0.011495584 0.11219686 0.27846876
0001c0 e2 fa 08 3e e5 33 da 3d 62 34 c3 bc b4 cf b7 bd
       0.13376954 0.10654429 -0.023828689 -0.08975163
0001d0 35 a5 ed 3d 12 0d a6 bb c8 df fe 3d 25 e5 9b 3e
       0.11603776 -0.005067476 0.12445027 0.3044826
0001e0 4a 5d 32 3e f7 ca 68 3e 6e 17 98 bd 3a d5 b9 3d
       0.174184 0.22733675 -0.07426344 0.09073873
0001f0 f8 b5 43 bd 07 0b 59 3d b4 02 8b 3d 71 19 a5 3c
       -0.04778096 0.052989032 0.06787625 0.020153733
000200 d6 c8 c3 3d 4c 09 4b 3c 7b ae 01 3f 38 fd 4a bd
       0.09559791 0.012392353 0.5065686 -0.049557894
000210 9e 58 5c 3e fc 79 a1 3c ae 94 ca bc 26 07 d2 3e
       0.2151818 0.019711487 -0.0247291 0.4102108
000220 4c 09 51 bb 18 2e 7b 3e 85 5e 13 3e 5c 5f e4 3e
       -0.003189641 0.24529302 0.14391525 0.44604003
000230 5e 85 97 be 95 a0 b8 bd 9c 59 84 3e fd f5 15 3c
       -0.2959394 -0.090150036 0.25849617 0.009152886
000240 a8 87 ed bd 36 05 5f 3d 7b c4 25 bc 0a 14 10 be
       -0.1159814 0.05444833 -0.010117645 -0.14070144
000250 f0 7d 92 3d 92 de a8 3e b4 c2 56 3e 75 1d b7 3e
       0.07152927 0.32982308 0.20972711 0.3576466
000260 64 b2 2b be d5 9e c9 3d 8a 28 49 3d 85 6e 25 3e
       -0.1676727 0.09844748 0.049110927 0.16155441
000270 1b 40 25 3e 38 02 ff 3d a6 91 28 3e b6 b1 9b bd
       0.16137736 0.12451595 0.1646181 -0.07602255
000280 b7 d1 f8 bc 37 23 02 3e 14 50 c0 be dc a6 8e 3e
       -0.030373437 0.12708746 -0.37561095 0.2786168
000290 78 0e 35 be 49 5f 00 3e ff d1 07 bd 1e 04 2a be
       -0.176813 0.12536348 -0.033159252 -0.16603133
0002a0 75 99 8a 3d 2e b2 5a 3d 69 b8 0e 3e 57 ee e7 3c
       0.06767551 0.05339258 0.13937534 0.028311891
0002b0 ba 4c 42 bd 4b f6 5e 3d 4c 11 35 be 63 69 cf 3e
       -0.047436453 0.054434102 -0.1768238 0.4051009
0002c0 db 84 07 3f 91 81 2c be 2d a2 41 bd f6 80 dc 3e
       0.52937096 -0.168463 -0.047273804 0.4306714
0002d0 3b b2 b6 3e 4f cf f6 bb fb e6 50 3e 6b 8a 75 bd
       0.35682854 -0.0075320373 0.20400612 -0.05994646
0002e0 7d 6a 67 3d 5b a1 0f 3e 90 d1 1e 3f e4 4d 00 be
       0.05649804 0.14026396 0.62038517 -0.12529713
0002f0 e2 93 db 3e 6e 70 78 bd 9b 5a 8b be a0 14 3f 3e
       0.42886263 -0.060654096 -0.27217564 0.18660212
000300 c5 56 68 bd ea 8b 07 3f 15 0d 37 bd bd 93 a7 be
       -0.056723375 0.52947867 -0.04469021 -0.32729903
000310 4f 3f 39 3e c1 b9 d5 bc 00 77 e3 bd dd 65 8e 3d
       0.18090557 -0.02608955 -0.11106682 0.06953023
000320 04 fe df 3e b8 ce aa 3a 13 cc 37 3e 39 22 88 bd
       0.43748486 0.0013031578 0.17948942 -0.066471525
000330 f0 59 c7 3d fc 12 0c 3e 96 68 e9 bd ae c7 2b bd
       0.09733951 0.13679117 -0.11396901 -0.041938476
000340 2d f7 26 3e 26 4e 5b bd a7 85 b7 3e fd d0 00 be
       0.16305228 -0.053541325 0.35844156 -0.12579723
000350 37 d1 4b 3e 48 17 be 3e 60 0c 12 bd 6c 60 5a 3e
       0.19904028 0.37127137 -0.035656333 0.21325845
000360 f1 a0 71 3d a4 bd 1b 3e 75 8a 81 3d 2b e0 ee 3e
       0.058991376 0.15209061 0.06325237 0.46655402
000370 37 cb 49 be 4e 11 12 bd a5 54 23 3e f0 f8 6f 3d
       -0.19706427 -0.035661034 0.15950258 0.058587015
000380 c4 bf 3a 3c ca db 51 3e 1a 98 96 3e 46 54 91 bd
       0.01139826 0.20493999 0.2941292 -0.07096152
000390 c2 a9 16 3e 47 9d 88 3e 88 d1 4b 3d 86 82 d0 3e
       0.14713195 0.26682493 0.04976037 0.4072458
0003a0 d4 1c 1f bd a3 08 86 bd db ca b3 3d c9 b3 be bd
       -0.038845852 -0.06544616 0.08778926 -0.09311635
0003b0 ee c1 0a bd 8d ce 70 3e 26 13 94 bc 1f d3 2e be
       -0.033876352 0.23516293 -0.018075537 -0.17072724
0003c0 fd 21 46 bd 0f 38 c2 bd 36 9c 3e be 27 2d 43 3d
       -0.048372258 -0.094833486 -0.18614277 0.047650483
0003d0 be 1a 11 bd 62 ba 7b bd cd 94 05 3e 2e 6f b7 3d
       -0.035425894 -0.061457045 0.13045044 0.08956753
0003e0 bc d3 6f bc 3e fa 1f 3e 61 ab 15 3f 36 0c 20 be
       -0.014637884 0.15622804 0.5846463 -0.15629658
0003f0 55 71 61 3d 1f ce 32 3d 95 fa 0b 3d 16 f7 1f 3e
       0.055039722 0.043653604 0.03417452 0.156216

f4.bias f4 [10]
000000 0a 61 08 be 06 b5 d8 3d 2b 0a 07 3e 87 b8 3b 3f
       -0.13318267 0.105814025 0.13187473 0.7332844
000010 ac 6e 3b 3f 68 74 d3 3e 8f b5 1b 3f 17 79 21 3e
       0.73215747 0.41299748 0.6082391 0.15768848
000020 f2 c2 0a 3f d6 c3 02 3e
       0.5420371 0.12770018
